model_final.pth (torch, 142261 bytes, 15 tensors)

embedding.weight f4 [26, 50]
000000 97 27 64 3f 3c 95 24 3e 39 79 b5 bd 31 a7 31 be
       0.8912291 0.16072553 -0.08861012 -0.17348935
000010 ab 40 22 3e a2 bb 53 bf 11 1e b0 3f 09 64 7b 3e
       0.15844981 -0.8270818 1.3759176 0.24549879
000020 49 c5 93 3e 4c af 8b 3e eb 87 cf 3d ac b9 88 bf
       0.28861454 0.27282178 0.10133346 -1.0681663
000030 bd 39 89 bf 8f f9 a4 bd ff 72 fd 3f 32 24 28 3e
       -1.0720745 -0.08055412 1.9800719 0.16420057
000040 f2 b6 57 bf c8 8c 31 bd f6 2e 73 bf 52 ae d7 bd
       -0.8426353 -0.04334715 -0.9499353 -0.10531296
000050 48 55 1f bb 4a a4 8a 3e 5e 78 3e 3f d3 0c 5f bf
       -0.0024312306 0.27078468 0.74402416 -0.87128943
000060 38 6b 91 3e b5 b0 25 be df e7 6f bf c4 e5 5a bf
       0.28402114 -0.1618069 -0.9371318 -0.85506845
000070 87 05 2f 3f 8d 67 b3 bd 81 e9 01 3e df c1 b5 bf
       0.6836781 -0.08759985 0.12686731 -1.419979
000080 9f 09 f2 be 90 f3 09 bf d4 7c ab be f5 b7 36 3f
       -0.47272965 -0.5388727 -0.33493674 0.71374446
000090 06 51 81 3e 9b 3f de be f1 1f 51 bc 55 47 85 be
       0.25257128 -0.43407902 -0.012763963 -0.26030985
0000a0 09 7b 4a bf de a1 7b 3f fa 87 b9 bf 73 1f 15 bc
       -0.79093987 0.98293865 -1.4494622 -0.009101736
0000b0 2e b4 30 3f 7d 36 4a be d2 12 84 3e 1b 04 42 bf
       0.6902493 -0.19747348 0.2579561 -0.75787514
0000c0 48 56 b5 bf b0 3b d3 be 6e 02 71 3d 3a 24 10 3e
       -1.4166956 -0.41256475 0.058840208 0.1407632
0000d0 d6 d3 d1 3e 64 63 b4 bf 10 c7 0e 3e e0 06 c8 be
       0.4098193 -1.4092832 0.13943124 -0.39067745
0000e0 a6 ba 5f bf 99 f7 fc 3e 96 89 4a 3f 1a 25 8a be
       -0.8739418 0.49407652 0.7911619 -0.2698143
0000f0 a0 16 9f 3e 00 95 3a 3f 8b 52 c0 3e e4 65 be be
       0.3107195 0.72883606 0.37562975 -0.3718711
000100 20 cb d5 bf 4a 97 55 3e c4 b4 60 3e 8b 02 3d bf
       -1.6702614 0.20858493 0.21943957 -0.73832005
000110 fd 3e a6 3d 43 47 f7 be c3 a3 85 bc 1b 47 c0 3d
       0.08117483 -0.48296556 -0.01631344 0.09388562
000120 5d 3c d7 3e 7d 09 ea bd 16 4f 4b be d2 6b 1c 3f
       0.4203824 -0.11427591 -0.19854388 0.6110202
000130 75 1a a2 ba fd 76 a7 3f 83 4a 14 be 85 24 fa 3e
       -0.0012367504 1.3083187 -0.14481549 0.48855987
000140 24 9f 93 3f e8 eb b8 be 4b a4 45 bf c9 a1 15 3f
       1.1532941 -0.36117482 -0.77203816 0.5844999
000150 3c 06 c4 bd c4 99 16 bf ed 53 c2 bf 90 14 39 be
       -0.095715016 -0.5882838 -1.5181862 -0.1807425
000160 58 0b 88 bf c1 91 db 3d 3e 90 67 3f b3 d9 80 3e
       -1.0628462 0.1072116 0.9045447 0.2516609
000170 6c 15 51 3e 46 09 40 bf a6 11 10 bf 17 df 04 bf
       0.20418328 -0.7501415 -0.5627693 -0.5190291
000180 12 88 8e 3f ec 06 ff 3f d7 0b 74 be d0 67 9c bf
       1.1135275 1.9923987 -0.23832642 -1.2219181
000190 c3 1b 12 bf 76 d2 2f bf bf 6b 24 bf c5 dc 2d 3e
       -0.5707361 -0.6868051 -0.6422691 0.16978748
0001a0 29 16 c4 be 9d 8b 04 3f 57 0a 8c bf 00 9c 01 3f
       -0.38298157 0.5177553 -1.0940655 0.5062866
0001b0 cc 79 86 bf 34 fd a7 bf df 8c 1e 3e ff 9e 2a bf
       -1.050592 -1.3124146 0.15483426 -0.6664886
0001c0 09 9d f8 3e ce d0 7b bf 64 a3 d4 3e ec 23 6c 3f
       0.48557308 -0.98365486 0.41530907 0.9224231
0001d0 95 5a d3 3e 6d 78 57 3f e7 29 95 bc ae a4 41 be
       0.41280046 0.8416813 -0.018208457 -0.18910477
0001e0 ea e7 ff bc 34 4f 8e 3f 89 2f 1d bf e9 a7 e7 be
       -0.031238515 1.1117921 -0.6140066 -0.45245293
0001f0 46 5e e3 3e 07 fd 38 3d f4 bc 53 3f ab ec 6e 3f
       0.44407862 0.04516318 0.82710195 0.93329877
000200 49 84 09 bf 22 10 37 3f 0b cb 1c 3f 66 e2 9f 3f
       -0.53717476 0.7150899 0.6124732 1.2490966
000210 7c c0 c9 be 40 0d 4c bf ca 32 d2 bd a6 60 1e 3e
       -0.39404666 -0.7970772 -0.102635935 0.15466556
000220 8a 76 90 3f d7 eb 34 be 59 49 46 3f 1a 79 80 be
       1.1286175 -0.17668091 0.7745567 -0.25092393
000230 a6 95 90 be 4e 48 06 bf 8a 40 84 bf b9 78 ca 3e
       -0.28239173 -0.5245408 -1.0332196 0.3954523
000240 b8 1e 31 bf 27 fa 37 3e 74 99 28 bf 31 9f b5 bf
       -0.691875 0.1796652 -0.6585915 -1.4189206
000250 c4 dc 35 bf 50 f5 a1 3c 2b da 02 3f ba 05 6b 3f
       -0.71039987 0.019770294 0.5111415 0.91805613
000260 96 84 18 bf 3c 28 c6 3d aa d2 2b be cd ce a1 be
       -0.5957731 0.09675643 -0.1677958 -0.3160309
000270 e0 26 74 be 7b 75 07 bf b2 0c 47 3f db 9a f5 be
       -0.23842955 -0.52913636 0.77753747 -0.47969708
000280 2b c6 b8 3d 15 b6 3a bf 17 e7 29 3e 99 72 bd 3d
       0.090221725 -0.72934085 0.1659206 0.092503734
000290 3f 88 60 3e 16 96 e3 be 24 2a 08 3f 40 89 e4 bf
       0.21926974 -0.44450444 0.531893 -1.7854385
0002a0 5c 0f 73 3f e1 c4 8f be f2 b1 df 3f c1 59 de be
       0.9494531 -0.28079894 1.747618 -0.43427852
0002b0 50 bd e8 3d 95 ec d0 be b0 1c 9e be 3a d1 30 3f
       0.113642335 -0.40805498 -0.30881262 0.69069254
0002c0 b7 e2 61 bf 14 d2 a9 bf 33 41 82 bf e3 fa bc be
       -0.88236564 -1.3267236 -1.0176147 -0.3691016
0002d0 9e cf 97 bf 66 13 84 3e f6 68 fa 3e cc c4 21 be
       -1.1860235 0.2579605 0.48908204 -0.15797728
0002e0 4b 5e f3 3e be 24 7d 3d 63 56 10 3f 8f fa 0b 3f
       0.47532877 0.06180262 0.56381816 0.546792
0002f0 5d 9b a8 3e 2e 05 78 3e 0d 3f e5 be 29 31 c3 3c
       0.32931033 0.24220726 -0.44774666 0.023827152
000300 6c a4 c8 3e e3 53 c2 3f 1e a2 9f be 69 14 ea bd
       0.39187944 1.518185 -0.31178373 -0.11429674
000310 24 ff 48 be 58 5c a1 3f b8 8a b2 3e 40 0e 03 c0
       -0.19628578 1.2606306 0.3487146 -2.0477448
000320 30 01 03 be 02 d5 16 bf 17 59 8f be c9 8f b9 3c
       -0.12793422 -0.58918774 -0.27997658 0.02265157
000330 2c 67 c8 bf 99 d1 57 3f f4 da c4 be 30 88 37 3d
       -1.5656486 0.84304196 -0.38448298 0.044807613
000340 09 ab 05 be a9 4d 61 3e b1 7c 7b be 84 b5 1e be
       -0.13053526 0.22002281 -0.24559285 -0.1549893
000350 d3 a3 cc bf 22 af b3 3f 0f 1b 35 3f 33 eb 1a be
       -1.5987495 1.4037821 0.70744413 -0.15128784
000360 a4 1a 8f bf a8 04 bd 3e 55 01 0d 3f a9 62 31 3e
       -1.1180005 0.36917615 0.5508016 0.17322792
000370 49 9f 98 3f 07 18 35 bd b3 69 f1 be 37 f1 6d bd
       1.192361 -0.044212367 -0.47150955 -0.05809137
000380 fa a3 d4 3e 17 8f 6e 3f 69 38 58 3f 3d 68 89 bf
       0.41531354 0.9318709 0.84461075 -1.0734936
000390 26 83 a6 bd 04 d6 6f 3e fb ad 19 3f 4a 78 d4 be
       -0.08130483 0.23421484 0.600311 -0.41498023
0003a0 de 4e 79 bf 4c e3 32 be 32 05 68 3f c1 2c 8a be
       -0.97385967 -0.1746952 0.9063293 -0.2698727
0003b0 12 e3 cf be 14 dc a4 3e b3 a6 8a 3f 67 44 8b 3e
       -0.40602928 0.32199156 1.0832123 0.27200624
0003c0 67 d0 e7 3f 85 1d 9f 3d 36 a2 4c be cb 1f c9 3d
       1.8110474 0.07769302 -0.19983754 0.09820517
0003d0 6a 76 b6 3f 23 17 39 3f 38 5a ff 3e e4 e7 a7 3e
       1.4254887 0.7230093 0.4987352 0.32794106
0003e0 06 1c 2e be 33 b4 97 3e 9e 1b 97 bf 16 24 f2 3e
       -0.17002878 0.2962967 -1.1805303 0.47293156
0003f0 44 0f af 3d 79 a1 f1 be 8a dd ea be 00 b5 83 3e
       0.085478336 -0.47193506 -0.45872146 0.2572403

encoder.weight_ih_l0 f4 [50, 50]
000000 85 60 18 3c 67 7d 56 3d 63 e4 43 bc a9 b4 2d bc
       0.009300356 0.052365687 -0.011956307 -0.010602155
000010 8f dd 44 3d ee b1 a8 bd 99 24 84 bc 1a 6c 08 3c
       0.048062857 -0.082370624 -0.016130732 0.008326555
000020 bd 04 97 bc 11 24 84 bd 2e 24 05 be 23 39 8f bd
       -0.018434877 -0.064521916 -0.13002083 -0.0699332
000030 d8 4b 2f 3d 25 db 34 bd 60 8f 17 3d 44 02 70 3d
       0.04279694 -0.044154305 0.037001967 0.05859591
000040 7d cb 33 3d 9e e0 a1 bd e4 7b 12 3d 30 85 21 3d
       0.043895233 -0.079041705 0.035762683 0.039433658
000050 c1 45 81 bb 2a b0 37 be 5f 5e 19 3e 0a a3 14 bd
       -0.003945083 -0.17938295 0.14977406 -0.0362883
000060 0e 05 e6 bc fe 25 db 3c 7b 1b 43 3d a9 3f e3 bc
       -0.028078582 0.026751515 0.04763363 -0.027740316
000070 42 d5 69 3c c4 91 a8 3d fc c1 a0 3d ec 06 a7 3d
       0.014272036 0.082309276 0.078494996 0.08155617
000080 00 a7 b0 bd 44 45 6d 3d f1 ae 9e bc 9c 0d 8b 3d
       -0.08625603 0.057927385 -0.019370528 0.06789705
000090 b6 11 d9 bc 94 3b 64 3d 6e f5 a7 3d bc f2 03 bc
       -0.026497703 0.05572088 0.08201109 -0.008053478
0000a0 cc 87 6d bc 85 3a ad 3d cb 85 ea bc af 43 4d 3d
       -0.0144977085 0.08458427 -0.02862825 0.050113376
0000b0 04 dc d9 3d fa 52 80 bd 76 76 93 bc f6 50 97 3c
       0.10637668 -0.062658265 -0.018000823 0.018471222
0000c0 aa 84 32 3d 80 e6 74 3d ac a6 00 3e a2 f4 35 bc
       0.04358355 0.059790134 0.1256358 -0.011105688
0000d0 ff 07 81 bd 96 0a 32 3d f8 63 f6 3d 85 ea 89 3c
       -0.06300353 0.043467127 0.12030786 0.01683546
0000e0 99 61 35 bd 22 83 11 3d b0 8d b3 bd 2e 13 6d 3d
       -0.04428253 0.03552545 -0.08767259 0.05787962
0000f0 27 1f d9 bd 5f f3 28 3d e5 48 a9 3c c7 f4 92 3d
       -0.10601645 0.04124772 0.020664642 0.07175594
000100 52 f0 66 3d 74 bf 03 bd d0 09 57 bd 3a 3a cb ba
       0.05638153 -0.032165006 -0.052499592 -0.0015505024
000110 d4 6b 9b 3c 2c d1 f7 bc 1d 75 99 3a 86 50 6e 3b
       0.018972315 -0.030251108 0.0011707876 0.0036363914
000120 37 23 a6 bd 78 95 fc bb 2e 76 83 bc 7d 27 d4 bc
       -0.081121854 -0.0077082478 -0.016047563 -0.025897736
000130 ce 13 8a 3d d6 f0 31 bb 1b fb 3a 3d ff 61 4b bc
       0.06742059 -0.0027151606 0.04564963 -0.012413501
000140 7d 80 d9 bd 33 fe 01 3c fd 33 33 3d 5f 7f b4 3d
       -0.1062021 0.007934141 0.04375075 0.088133566
000150 31 3d 0a bd 4a 56 a1 3d 76 19 06 bb 8b b9 e3 3d
       -0.033749763 0.078777865 -0.0020461953 0.11119374
000160 4d b1 82 3c f1 5c 4e 3c 2b 89 9d bc 8f 1c db 3c
       0.015953684 0.012595401 -0.019230446 0.026747016
000170 01 43 d2 bd 37 09 a0 bb f3 eb 06 3c ed 89 fa bd
       -0.10266686 -0.004883911 0.008234966 -0.122333385
000180 7b 14 83 3d e6 e3 31 3c e4 fe 49 bc 59 2d 6f bc
       0.06400391 0.010857558 -0.012328837 -0.014598214
000190 0f 59 7b bd 8e b1 fc bd 57 a3 9d bd 7e 8f 80 3d
       -0.06136423 -0.12338553 -0.0769717 0.06277369
0001a0 94 ea 19 be 41 b1 03 bc 26 ca 93 bd 35 37 15 3d
       -0.1503089 -0.008037866 -0.07216291 0.036429603
0001b0 d4 cf ed 3d 74 b2 c2 bc 0c f9 38 3e 77 88 ab bd
       0.11611906 -0.023766734 0.18063754 -0.08375638
0001c0 36 30 03 bd d2 bb f0 3c 54 82 47 3d 7e 49 98 bc
       -0.0320284 0.029386435 0.048708275 -0.018589731
0001d0 39 b1 b5 3d 4b 6b 07 3e 0e 85 92 bd 74 5d f5 3c
       0.08871693 0.13224523 -0.071542844 0.029951788
0001e0 7f e7 8a 3d 73 5c a0 3d cf 3f d8 3d c6 7f aa 3d
       0.067824356 0.07830133 0.105590455 0.08325152
0001f0 ad cc 09 be 85 2b f9 bd 22 f7 0c bd 06 a2 72 bb
       -0.13456984 -0.12166504 -0.03441537 -0.0037022843
000200 63 1f 9a 3d de c8 48 bc 4d 02 c1 bd f6 c9 ac 3c
       0.07525518 -0.012254922 -0.09424267 0.021092396
000210 a7 42 9b bd 8c 0e 0c 3e 6b 4a 8e bd 52 a7 2c 3d
       -0.07581072 0.13677424 -0.06947788 0.042151757
000220 9a ba 06 3d d4 a3 49 bd f0 c7 7e 3d 14 30 d4 bd
       0.0328928 -0.049228504 0.062202394 -0.10360733
000230 1c 0f 00 bd 09 97 8f 3d f6 73 1d be e7 07 ba 3d
       -0.03126441 0.070112295 -0.15376267 0.090835385
000240 92 94 da 3c eb cd 5d bc 13 38 88 bd 46 bd 6d 3d
       0.026682172 -0.013537864 -0.0665132 0.058041833
000250 0a 7b ec 3c 74 df f1 3d 81 5d 8a bd d0 cd ae 3d
       0.028867263 0.118101984 -0.06756116 0.08535349
000260 33 79 c0 3d 8b 84 2e bd 3e f7 9d 3d 4d f1 08 be
       0.09398117 -0.04260687 0.07713173 -0.13373299
000270 b0 3c d7 bb 0c 07 57 ba 7e 1f 41 bd 8f 44 47 3c
       -0.006568514 -0.0008202649 -0.047149174 0.012162342
000280 27 e3 42 be 3e 05 f1 bc 75 96 7a bd 08 d0 ea bb
       -0.19031964 -0.029421445 -0.061178643 -0.0071659125
000290 fa dc dc bd e7 9b a1 bd ca 1d f7 bd 4e 11 bd 3b
       -0.107843354 -0.07891064 -0.12066229 0.005769885
0002a0 ca 2f b9 3c a2 6c 85 bd 4f d1 19 bd 0b 90 fc 3c
       0.022605795 -0.06514861 -0.037553128 0.030830404
0002b0 ce d5 21 bd e1 7d d6 bd bc c0 34 3d fc b1 10 3d
       -0.03951054 -0.10473228 0.04412912 0.03532599
0002c0 5b b7 f8 3d 72 59 41 3c 56 92 0d 3d 5e 5b 80 3d
       0.12144347 0.011801111 0.034563385 0.06267427
0002d0 ce 91 4e 3d 79 5e aa bd 29 64 5a 3d af 4e 84 3d
       0.05043202 -0.083188005 0.053318176 0.0646032
0002e0 7b dc 1a 3e 6c f3 6a 3d b7 13 49 bd f1 4e fd bc
       0.15123169 0.05736105 -0.049091067 -0.030921431
0002f0 57 a9 f5 bd 11 5a 07 ba ec b0 fc 3c 2c ba ac 3d
       -0.1199519 -0.0005163262 0.030846082 0.08433947
000300 44 1a 42 3c e2 76 39 3d 1c 5b 95 3d 6b 69 65 3d
       0.0118470825 0.04527939 0.07292768 0.056008738
000310 71 04 9d bb d6 5a 8e bd 0f 17 3b bd e2 df 84 3d
       -0.004791789 -0.06950919 -0.045676287 0.06488015
000320 5b 97 42 bb 49 4a ea 3b 8e 7f d0 bc 7b 48 e3 3c
       -0.0029692266 0.0071499688 -0.025451448 0.027744522
000330 06 95 eb bb 70 64 18 bd 15 2e c1 3d b5 66 9a bc
       -0.007189396 -0.03720516 0.094326176 -0.018847803
000340 6b af b2 3d d7 5b a7 bd fb 06 25 3e 2e ad 23 3d
       0.087248646 -0.08171814 0.16115944 0.03996008
000350 a4 00 65 3a 6f 01 d9 bd ea 6b c9 3d 58 37 5b 3d
       0.0008735752 -0.105959766 0.09835036 0.053519577
000360 dc 83 94 3c cf a6 e2 3c af f4 34 bd 00 ed 7c bd
       0.018129282 0.027667431 -0.04417866 -0.06174946
000370 d5 d5 be 3d 48 6b f3 bc de 3b 0b be 47 97 e1 bc
       0.09318129 -0.029714242 -0.13597056 -0.027537955
000380 b6 54 92 bd 45 15 b8 bd 77 7f c6 3d 7a 20 c2 bd
       -0.071450636 -0.08988432 0.09692281 -0.09478851
000390 d9 19 40 bd 1f ac 40 bc 38 fa e0 3d 19 0b 42 bc
       -0.04689965 -0.011759787 0.109852254 -0.011843466
0003a0 5a f8 fa 3c 03 fb 5c 3d 3b 6a a5 bc d0 6f 81 bd
       0.030636001 0.05395032 -0.020192256 -0.06320155
0003b0 bd 1c ad bd 88 de fe bc b4 db 1d bd bf ad a3 3d
       -0.08452747 -0.03111197 -0.038539603 0.07992124
0003c0 22 39 e6 3b 45 46 b3 bc 72 f3 bc 3c c1 28 8a bd
       0.0070258537 -0.021884093 0.023065303 -0.067460544
0003d0 24 33 ae 3c 5d 6b 5e bb 00 8d de 3d 0e 7b 17 bd
       0.02126462 -0.0033938505 0.10866737 -0.03698259
0003e0 52 e5 49 ba c8 0e 05 bc f3 53 d0 bd 4d ba ee bd
       -0.0007701713 -0.0081212 -0.10172262 -0.11656628
0003f0 e7 99 94 bd a3 cc 8c 3c 6f bb e7 3d 20 04 c3 bc
       -0.07255917 0.017187422 0.11315047 -0.023805678

encoder.weight_hh_l0 f4 [50, 50]
000000 0e e8 92 3d ae 01 03 be 0c 7e db 3d 78 17 c5 bd
       0.07173167 -0.1279361 0.10717401 -0.09623617
000010 43 b4 d8 3d eb c6 ed 3d b6 36 74 3d ca a8 3e be
       0.10581257 0.11610206 0.05962249 -0.18619075
000020 60 38 7a 3d 8e 29 b8 3d f0 07 61 be 8f ab a0 3c
       0.06108892 0.08992301 -0.21975684 0.019613056
000030 34 ce 88 3c 5c ac f1 bd eb b9 7a bd d3 94 0a be
       0.016699888 -0.11800453 -0.06121246 -0.13533334
000040 12 4c 6c bd 2f cb af be 02 be 29 be ca a8 09 3e
       -0.057689734 -0.34334704 -0.16576388 0.13443294
000050 85 8c 54 be 58 cf 2f 3d 90 bc 0c bd 6b c6 b1 3c
       -0.20756729 0.042922348 -0.034359515 0.021701058
000060 d0 7f 83 be 84 f3 7f 3e 0f d7 3d be f1 1e 39 3e
       -0.2568345 0.24995238 -0.1853907 0.1807821
000070 98 51 69 be 11 e2 02 be 99 17 68 bc e7 6d 8e bd
       -0.22785032 -0.1278155 -0.014165782 -0.06954556
000080 bb 24 66 bd a2 f7 99 3d 43 50 0e 3e 6b 78 cd bc
       -0.056187373 0.07517935 0.13897805 -0.025081834
000090 a7 8a ad bd 06 08 2c bd f5 f9 c4 bc 90 26 46 be
       -0.084737115 -0.04199984 -0.02404497 -0.19350648
0000a0 1a 75 d8 3c 29 e7 ab 3d 6f 52 18 3e e4 6c 7c bd
       0.026423026 0.083937 0.14875196 -0.061627284
0000b0 ac 8d f7 bd 48 17 8e 3e 39 3e 77 be 65 98 85 be
       -0.12087569 0.27752137 -0.2414483 -0.2609283
0000c0 47 6a 91 3e 0b 5c 22 bc 4f 60 41 3d 87 64 04 be
       0.28401396 -0.00990964 0.047210988 -0.12928973
0000d0 09 a4 4c bd 5b a5 73 3d b1 e1 7d 3c 11 49 cf be
       -0.049961124 0.059483867 0.015495704 -0.40485433
0000e0 13 75 5d bb 0b 2c aa bd 46 fd a4 3e df 68 cc 3c
       -0.0033791706 -0.08309182 0.32224482 0.02495235
0000f0 05 a5 89 3e a5 44 06 be a4 f8 a3 be 67 5a 0d be
       0.26883712 -0.13112123 -0.32025635 -0.13804017
000100 4c 8b 86 bd 77 bf 87 3e 7a 8a 18 3e 44 2d 38 bd
       -0.065695375 0.26513264 0.14896575 -0.044965044
000110 af ff 3f 3d 95 0b 73 3e bb 77 22 3e 9b 9f c7 bd
       0.0468747 0.23734887 0.15865986 -0.09747239
000120 54 e0 83 be 7a 58 ce 3d 85 22 00 3e 42 4e 85 3d
       -0.25757086 0.10075469 0.12513168 0.06509067
000130 52 1b 0c 3d 51 1e ae 3e f1 90 84 bd a2 1f 9a 3e
       0.034205742 0.34007505 -0.06472958 0.3010226
000140 d2 ba fb 3a 8c e1 cf 3d ce 43 c5 bd e4 01 8f 3d
       0.0019205457 0.101504415 -0.09632073 0.069827825
000150 49 9b 71 be f3 52 b7 bd 37 84 68 3e 72 d2 08 3e
       -0.23594393 -0.08951368 0.22706686 0.13361529
000160 5b 59 9b 3d 01 a0 cf bd ae a1 ce bd 60 4b 2d 3e
       0.075854026 -0.1013794 -0.10089432 0.16923285
000170 e5 ed 9a 3c d4 91 e8 bc 28 52 33 3e 59 fa 38 3c
       0.018912265 -0.028389849 0.17511809 0.011290156
000180 42 75 6d bd 82 c8 fb bd be a4 e4 bd 13 b0 ae 3c
       -0.057973154 -0.12294103 -0.111642346 0.021324193
000190 f2 d7 b3 3c 23 50 c5 3c dd 63 7f be 3f bd d4 3d
       0.021953557 0.024086064 -0.24940439 0.10387658
0001a0 9d 34 84 3e ae 11 98 bd f4 63 4a be 18 e8 b4 bc
       0.2582139 -0.07425247 -0.19764692 -0.022083327
0001b0 b2 f2 b2 bc eb b5 30 3e e7 ea 65 3e 88 9b ee 3d
       -0.021844242 0.17256896 0.2245289 0.11650759
0001c0 3e 4c 93 3d d8 45 58 3d 67 f2 22 be c4 87 33 3e
       0.071922764 0.052800983 -0.15912782 0.17532259
0001d0 58 46 1b 3c 10 38 07 bd 63 74 ca bd 89 b8 3f bc
       0.0094772205 -0.03301245 -0.0988548 -0.011701711
0001e0 41 5e 21 3e 47 99 23 3e 43 16 42 3e 10 e8 23 3e
       0.15758611 0.1597644 0.18953805 0.16006494
0001f0 55 ff 28 3e 00 8f 83 be dc 5d 81 be 87 d9 83 bd
       0.16503651 -0.25695038 -0.25266922 -0.064379744
000200 e5 4e 45 3d 17 7c 06 3b 81 ba 94 3c 43 fd 96 bd
       0.048170943 0.002052074 0.018155338 -0.073725246
000210 af ed 27 be 17 bf 0d 3e 4d 14 0f bc ac 80 b7 bd
       -0.16399263 0.13842426 -0.008732867 -0.08960089
000220 6a 59 aa bd ce f9 2d be c6 9c 11 3e d6 c4 dc bd
       -0.08317836 -0.16989824 0.1421996 -0.10779731
000230 7d 93 ac 3d a0 8c 1b be de 4b 1f 3e 8a 7d 58 3d
       0.08426569 -0.15190363 0.15556285 0.0528541
000240 71 02 5f 3d d7 8c ad bc bd 62 34 3e 38 04 a1 3e
       0.054445688 -0.021185322 0.1761579 0.3144853
000250 4d ba 89 be 5c 6f f2 3d f1 61 87 bc 03 ca 62 3e
       -0.2689995 0.11837646 -0.016526194 0.22147374
000260 43 9a 38 3d 76 c6 b3 bd 4c 12 99 bd 19 96 91 bd
       0.04506899 -0.08778088 -0.07474193 -0.07108707
000270 9a 4c 90 bd 1f ac 68 3b eb 0d 7e 3d fd dd 25 3e
       -0.070458606 0.0035502983 0.062024992 0.16197963
000280 91 ee eb 3d 71 2c 70 bd 2b ca 1b 3e 3b b9 05 3e
       0.11520112 -0.058636133 0.1521384 0.13058941
000290 91 cf 14 be 49 0a fe 3d 78 a4 5d 3e 15 e1 35 3e
       -0.14532305 0.124043055 0.21644771 0.17761643
0002a0 eb 96 af be 6e 7a 95 3e cc 99 b7 3b 76 40 5f 3d
       -0.3429483 0.2919497 0.005603051 0.054504834
0002b0 cf dc a7 bb 87 e6 b9 3c 6f 35 83 3b 1b 89 16 be
       -0.005122758 0.022692932 0.0040041725 -0.14700739
0002c0 e0 25 6a bd d2 e8 16 be aa 5a 1c 3e 9d a5 9b bd
       -0.057165027 -0.14737251 0.1526896 -0.075999476
0002d0 5e b1 82 3e e4 40 01 3c 4f 55 8a bd 01 be 61 3d
       0.25525945 0.007889006 -0.067545526 0.055112842
0002e0 b5 8e 8e bd 9f a0 a7 3c 99 52 2c 3e bc 83 5b 3e
       -0.06960813 0.020462332 0.16828384 0.21436971
0002f0 e5 2f f2 bd e5 86 45 3e 11 64 13 bd ec d8 4e 3b
       -0.118255414 0.1928974 -0.035984103 0.00315624
000300 bc 83 ac be eb 52 88 bc 32 d2 a7 bd ff 72 48 be
       -0.33694255 -0.0166411 -0.081943884 -0.19575118
000310 32 cd df bb 40 e3 63 bc 91 1c 1a be 01 64 a0 3e
       -0.006829881 -0.013909161 -0.1504996 0.31326297
000320 fb cc 9e 3d 17 ba a0 bd d1 c8 15 be 94 87 8f 3d
       0.07753941 -0.07847994 -0.14627387 0.07008281
000330 e7 1f 05 bd 25 aa 04 bd 39 f6 6b bc 35 1d 21 3e
       -0.032501128 -0.032388825 -0.014401966 0.15733798
000340 7c f4 d8 bc 71 74 e5 bc 6c 97 6e be 2d a9 09 3d
       -0.026483767 -0.028009625 -0.2329995 0.033608604
000350 8e a7 14 be 99 b6 ac 3d 7b 7a 9d 3d 6c 72 af be
       -0.14517042 0.08433265 0.07689377 -0.34266984
000360 29 97 03 be c8 2a c3 3b 0d 0b 1d be 64 79 2d be
       -0.12850632 0.0059560277 -0.15336247 -0.16940838
000370 55 2a 50 3e d9 c2 a1 3d 0a 83 fd bb 1c cf 76 bd
       0.20328648 0.07898492 -0.0077365683 -0.06025611
000380 ba 31 f5 bd 47 87 ab 3d 75 df 72 be ce e7 e2 3e
       -0.11972375 0.083754115 -0.23718055 0.44317478
000390 7a 62 0d 3e ba 90 5d be 21 6b 9d 3d 32 c7 b3 be
       0.13807097 -0.2163724 0.07686449 -0.3511291
0003a0 cd e1 af 3e b3 5b 2c 3e ab 49 80 3e a2 a6 f1 3d
       0.3435196 0.16831855 0.25056204 0.11799361
0003b0 6e 53 d6 3d f7 82 1f 3e e4 0a 9d bd 95 37 be bc
       0.10465132 0.15577303 -0.07668093 -0.023219863
0003c0 15 84 7c bd a0 be ec 3d c4 a6 15 bd 61 6b 23 3e
       -0.0616494 0.11559796 -0.036535993 0.1595893
0003d0 42 7d bb 3d c2 32 5b be 48 64 82 bd 1e 0a c9 be
       0.091547504 -0.21406081 -0.063667834 -0.3926553
0003e0 c1 1b 18 bb ed 20 a7 bc 99 87 01 3e e3 7c 10 3d
       -0.0023209902 -0.020401442 0.12649383 0.03527535
0003f0 d0 70 f6 3c f8 f2 66 3d d9 a9 76 bc 19 fb 78 3c
       0.03008309 0.056384057 -0.015055143 0.015196585

encoder.bias_ih_l0 f4 [50]
000000 6c 23 e7 3d ca 03 bc bc 6e 70 02 3e cf 8a 98 3d
       0.11286053 -0.022951026 0.12738201 0.07448351
000010 a4 d1 37 3d f8 7e c3 3d 17 24 a2 3d 0c a4 80 bd
       0.044877663 0.09545702 0.0791704 -0.062812895
000020 7e 06 36 bd a1 90 af bd c5 8b 1b 3c 98 14 0b be
       -0.044439785 -0.08572508 0.009493773 -0.13582075
000030 81 8e 1d 3d 42 ad f2 bd 82 45 c1 bc 74 e5 89 bd
       0.03846598 -0.118494526 -0.023592714 -0.06733218
000040 0e d3 0f 3e 07 19 b8 3d a0 55 58 3c 13 c0 09 bd
       0.14045355 0.089891486 0.013204008 -0.033630442
000050 48 ba 16 3d 2e e1 7c 3e 6a b9 80 bd fe 63 a0 3c
       0.036798745 0.24695274 -0.06285365 0.01957893
000060 9a 20 cf 3b f4 5a 75 bd 0c d4 f9 3d 29 6e 47 3d
       0.006321025 -0.059901193 0.12198648 0.04868904
000070 47 8c 99 bc bd d9 6e bd 27 61 5f bd db 1e 32 3d
       -0.018743647 -0.05831312 -0.05453601 0.043486457
000080 98 d8 3b b8 6b c4 17 bd 7c 34 c8 bd 94 3f 3b 39
       -4.4785993e-05 -0.037052553 -0.097756356 0.00017857394
000090 f6 dd e3 3d b0 6d 1b 3e 00 d1 0a 3d 46 d7 96 3c
       0.1112632 0.15178561 0.033890724 0.018413197
0000a0 4a 20 41 3e f2 cb 5f 3d 07 60 e5 bd a6 e0 59 bd
       0.18859974 0.054637857 -0.111999564 -0.053192757
0000b0 0a cb 01 3e ea ca 8e bd 29 58 47 bd e3 61 f2 3c
       0.1267511 -0.069722965 -0.04866806 0.029587692
0000c0 b8 03 7e bd b3 62 eb bd
       -0.062015265 -0.11493435

encoder.bias_hh_l0 f4 [50]
000000 cf 1c 57 bd 6a b2 84 bc 1b fb a4 bd 1e 33 c2 3d
       -0.05251771 -0.016198356 -0.08055707 0.09482406
000010 52 5e d8 bd dc fd cf bd 45 ea cb ba fd b4 2b be
       -0.10564865 -0.10155842 -0.0015557489 -0.1676826
000020 6f 5e 39 bd 8b 15 7d bd 50 28 1c bd 0e 25 9a 3d
       -0.045256075 -0.061788123 -0.038124382 0.07526599
000030 29 13 6a 3d e2 c8 d8 3d 88 ac 95 bb fa 89 15 be
       0.05714718 0.1058519 -0.0045676865 -0.14603415
000040 cb 5d e3 3d d9 85 14 be d7 f0 42 be 95 ff 3e bd
       0.11101874 -0.14504184 -0.19037186 -0.04663046
000050 b7 13 e8 3b 13 10 3b 3e b1 9c f6 3c 44 0a 28 bd
       0.0070824283 0.1826785 0.030104013 -0.041025415
000060 61 95 fb bc a0 ee 91 bd 7a 01 82 bd b6 09 65 bd
       -0.030710878 -0.07125592 -0.06347938 -0.055917464
000070 f4 58 dd bc 95 5f c6 3d da dc b3 bc 5d 0b c3 bd
       -0.027019955 0.096861996 -0.021955896 -0.09523652
000080 06 45 b6 3d 16 9a 07 bd 98 37 2d bc 9e b5 66 bd
       0.08899884 -0.033105932 -0.010572337 -0.056325547
000090 5e 3a 28 3e d5 1a 98 3d ae 97 22 bd 63 d0 62 be
       0.16428515 0.07426993 -0.039695434 -0.22149806
0000a0 a5 8a 34 3e 6e 9a b5 3d 46 dd 92 3d 2e d6 31 3d
       0.17631014 0.08867346 0.07171111 0.04341715
0000b0 7d 44 ad bd 9f 1f fe bd 1d cb df bb d1 3a 4e bc
       -0.08460329 -0.12408375 -0.006829633 -0.012587265
0000c0 23 2e 35 3d 4a a9 17 3d
       0.044233453 0.03702668

encoder.weight_ih_l0_reverse f4 [50, 50]
000000 26 3f 9f 3e 8b 38 a0 be 15 da 08 bf 40 c1 2d 3f
       0.31102866 -0.3129314 -0.53457767 0.67873
000010 0d a0 d6 3e f9 50 d1 be df f3 d4 3d 83 b7 af be
       0.41918984 -0.4088209 0.10398077 -0.34319696
000020 ed 36 9d 3e 57 b7 6d 3e fe 0c 2e bd 86 16 48 be
       0.30705968 0.2321447 -0.04249286 -0.19539842
000030 ad 37 24 3d 95 fd 0c 3d ab 30 89 3d 6a 3e 7d be
       0.04009216 0.034421522 0.06698736 -0.2473084
000040 74 15 d7 bc 40 91 79 be a8 8d 9b 3d dc 64 06 3e
       -0.026255347 -0.24371815 0.07595378 0.13124412
000050 e7 7f 19 3f ec d4 c5 3d 29 1e e3 3d 45 da bd be
       0.5996079 0.09659752 0.11089737 -0.3708059
000060 73 1e 57 3d de 3c b7 bc cf 61 c6 3e f1 f9 30 3e
       0.052519273 -0.02236789 0.38746497 0.17282845
000070 90 ac 3b be 33 de 11 bf 13 e0 11 bc 8c e0 bb 3e
       -0.18327546 -0.56979674 -0.008903521 0.36694753
000080 19 60 b7 3d 54 98 ac 3d dc 61 d1 3d 58 42 ac 3e
       0.08953876 0.08427492 0.10223743 0.33644366
000090 76 52 a9 bd 18 d3 d7 bd f2 8e cd 3d 00 06 2c 3e
       -0.08267681 -0.1053831 0.1003703 0.16799164
0000a0 aa 6e 04 be a4 41 b4 3d 76 6a 18 3e 9f b9 09 3f
       -0.1293284 0.088015825 0.14884362 0.5379886
0000b0 fb 54 31 bd 54 e0 fd bc d3 fc 91 be 9b d4 c3 bd
       -0.043293934 -0.030990757 -0.28513202 -0.09562036
0000c0 9d 9e b8 3b 31 0f 1d be d0 a5 9d 3c 1a 73 98 bd
       0.0056341426 -0.15337826 0.019244105 -0.07443829
0000d0 8c 9f eb 3b c3 36 08 3e 38 89 64 bb 65 2b d4 bb
       0.0071906503 0.1330214 -0.0034871828 -0.0064748996
0000e0 1f 84 8e 3b 38 c5 af bd b7 e1 96 3d 19 b3 d2 3c
       0.004349246 -0.08582538 0.073672704 0.025720166
0000f0 8a 14 8e 3d b9 09 94 bd 32 3d 71 be ef f4 e6 3c
       0.06937511 -0.07228417 -0.235585 0.028192965
000100 30 cb 0e be 59 c5 4e bd 91 83 b4 bd 7b 13 8c bd
       -0.13944697 -0.050481174 -0.08814157 -0.06839653
000110 bb 42 d9 3c fd 95 ce bc 37 47 06 be 58 0d d4 3d
       0.026521077 -0.025218004 -0.13113104 0.103541076
000120 7c 0d 2a bc a7 69 ee 3c 03 c4 36 3e fd 02 1a bd
       -0.0103791915 0.029103113 0.1784821 -0.037600506
000130 24 87 9b 3c ee 3e 21 3d f5 6d dc bd 8f bb a3 bc
       0.018985339 0.039366655 -0.1076316 -0.019986896
000140 61 ec c6 bc ad 93 74 3d 72 1c d7 3c 9c ae 11 3d
       -0.024282636 0.059711147 0.026258681 0.03556691
000150 4f 82 2a bd 6d 0e b2 bc f7 1b 8b 3c 45 18 74 bd
       -0.04162818 -0.021735394 0.016981108 -0.059593458
000160 c9 ad c5 3d e0 ad 7e bd dc 23 8f 3d ee a6 b0 bc
       0.096522875 -0.06217754 0.069892615 -0.021563973
000170 6f 34 a3 3d 57 99 7f 3e 72 ee a5 bc 53 05 36 3d
       0.07968985 0.24960838 -0.020255301 0.04443867
000180 ef 4b 84 3c 0d f5 6b 3c a1 0f f6 3d 1c 1a 69 3d
       0.01614949 0.014401686 0.120147 0.056909665
000190 e5 74 a4 3d 51 81 b1 3c 4e 7e 7d 3d 65 aa ff bd
       0.08030108 0.021668108 0.06188803 -0.12483672
0001a0 a5 be 95 3d d3 9b 01 bb 5f 7b 4d 3c 67 1b cd 3d
       0.07311753 -0.0019776716 0.012541621 0.10014992
0001b0 87 29 0d bd 17 57 c2 bd c5 2f 06 be 74 95 7c bc
       -0.03446343 -0.09489267 -0.1310416 -0.015416492
0001c0 09 ca d8 3b 6f 90 87 3d 81 c0 ba 3b 15 9c 44 3d
       0.0066158813 0.066193454 0.005699218 0.048000414
0001d0 61 4e 21 3c aa 2f 9a 3d ce cd 77 3d bb 1a 57 bd
       0.009845347 0.075286224 0.060499005 -0.052515727
0001e0 8b 8d ea bc 02 d3 92 bd 3d b8 a0 3c c6 49 90 bc
       -0.028631946 -0.07169153 0.019619102 -0.017613303
0001f0 fd 78 fb 3c 11 27 43 3d 10 dd aa 3d 62 30 43 bd
       0.03069734 0.04764468 0.083429456 -0.047653563
000200 12 08 0a 3e 7a f3 ae bc 4d a5 43 3d 7c 63 de 3c
       0.13479641 -0.021356333 0.047765065 0.027147047
000210 88 9e b6 bd 0f 27 87 bd 64 36 11 3c 64 7b 2d 3d
       -0.08916956 -0.06599247 0.008863065 0.042354003
000220 ca b9 f2 39 45 25 33 bc 05 8c c5 bd 48 49 a5 3c
       0.0004629626 -0.010934179 -0.09645847 0.020176545
000230 84 41 77 bd d1 e3 18 bc f1 aa 3e 3d d6 13 c9 bc
       -0.060365215 -0.009331659 0.04654974 -0.024545591
000240 99 a4 91 3d 6a 58 25 bd d5 11 07 be e8 51 ab 3b
       0.07111473 -0.04036752 -0.13190396 0.00522827
000250 62 df a2 bc 62 15 d8 bd 5a 24 8a bd 99 58 0a bd
       -0.019881908 -0.105509534 -0.06745215 -0.0337759
000260 6c 5e 70 bc 01 e9 cf bc 06 d3 68 be e7 ef b2 3c
       -0.014670949 -0.02537966 -0.22736749 0.02184291
000270 0a d3 1d 3b 25 74 95 bd f4 e5 9f 3d da 2e e9 3b
       0.0024082088 -0.072975434 0.07807532 0.007116181
000280 ea 96 37 3d 06 d4 ba bc d0 8b e2 3d 44 cb aa bd
       0.044821657 -0.022806179 0.11061823 -0.08339551
000290 d6 c6 2e 3d 07 64 1c bd c6 c6 95 bc e9 66 c9 3c
       0.042670093 -0.03818133 -0.01828326 0.024585204
0002a0 02 2b 0e bc d4 cc 65 3d ea 99 8d bd e6 35 a9 3c
       -0.008677246 0.056103542 -0.069141224 0.020655584
0002b0 b9 8c d5 3d 28 41 8d bd 47 bc 93 3d 7a 95 82 bd
       0.10427231 -0.06897193 0.072136454 -0.06376167
0002c0 76 43 09 bd 3c 35 97 bc 36 27 ee 3d 98 fa 0b bd
       -0.0335116 -0.018458001 0.11628573 -0.03417453
0002d0 d9 03 64 3d 9a 25 98 3d 00 04 ef 37 c9 b7 b0 bc
       0.055667732 0.07429047 2.8492883e-05 -0.02157201
0002e0 b7 4d c5 ba 3e 06 34 3d da 4a 39 bd 50 49 50 3c
       -0.0015053068 0.043951266 -0.0452374 0.012712792
0002f0 27 f9 78 3c f7 70 a2 3d 61 b0 2f 3d d3 57 ba bd
       0.015196121 0.079317026 0.042892817 -0.090987824
000300 4c bb 94 bc 32 04 57 3c 7d 1f b7 3c 9d 89 d6 3c
       -0.018155716 0.013123559 0.022353882 0.026188666
000310 49 4f 01 3d 7d db 28 3d 54 40 fb 3c 45 96 87 bd
       0.031569753 0.041224945 0.030670322 -0.066204585
000320 f7 68 98 be 77 15 96 3e 68 5a 15 bd f5 32 d0 3d
       -0.29767582 0.2931325 -0.03646317 0.10165969
000330 2c 01 80 bd fb f1 6d 3e c0 bb 59 be d3 ac c3 3d
       -0.062502235 0.2323684 -0.21263027 0.09554448
000340 d7 8c c9 3b bb 16 2b 3e 1c 75 40 3e 2b b7 ee bd
       0.0061508226 0.1670789 0.18794674 -0.1165603
000350 e6 68 82 be 96 0a b8 bd ae dd cc 3c 59 19 5f 3e
       -0.25470656 -0.08986394 0.025008049 0.21787013
000360 28 d6 a9 3e 9e 37 98 bd 18 83 e1 ba c6 d4 97 3d
       0.331712 -0.07432483 -0.0017205207 0.0741363
000370 48 6b 59 be 9f 8d 2f be aa 7f 3c be 47 61 4d 3d
       -0.21232331 -0.17143868 -0.18408075 0.0501416
000380 17 97 6b 3d a4 0c ad 3d db 90 8b 3e 86 2a 1a bc
       0.057517137 0.08449677 0.27258953 -0.009409552
000390 a3 97 a2 bd 6c 59 96 3e a1 b3 4d 3e 25 fa 31 3d
       -0.07939079 0.29365098 0.20088054 0.043451447
0003a0 a1 1a ea be 67 51 32 3e 76 41 0e be 05 00 b9 bd
       -0.4572344 0.17413865 -0.13892159 -0.09033207
0003b0 04 dc 95 bd 82 be d7 3e f8 fb ca 3e 45 53 1f bd
       -0.07317355 0.42137533 0.39645362 -0.03889777
0003c0 43 24 ec 3e d8 82 11 bf 4e 86 04 be 6f 81 39 3e
       0.46121415 -0.56840277 -0.12941858 0.18115781
0003d0 68 03 c2 3c 06 39 4c be 46 59 64 be 19 4e c7 bc
       0.023683265 -0.19943628 -0.2229968 -0.024329232
0003e0 f6 6f ed bd e5 ca 30 bd b4 d5 8f bd 6e 62 8f bd
       -0.115936205 -0.043162245 -0.070231825 -0.07001196
0003f0 07 39 08 bb 5d 2f f9 3d 2d 32 3e bd 3f d7 1d bd
       -0.0020785944 0.12167237 -0.04643457 -0.038535353

encoder.weight_hh_l0_reverse f4 [50, 50]
000000 e8 cc 1b bd 63 38 12 3e 18 d9 38 bd c4 5e 16 be
       -0.03803721 0.14279322 -0.04512891 -0.14684588
000010 0a df 27 bd d7 9a 9b be 29 07 cf 3d 81 56 a1 be
       -0.04098419 -0.3039157 0.101087876 -0.3151131
000020 d7 77 81 bd cc c4 79 be b5 1b 1a 3d 37 f4 0f 3e
       -0.06321686 -0.24391478 0.03762408 0.14058004
000030 23 2f 18 3d 0f 23 73 3d c7 b3 87 bb 10 34 c0 3d
       0.037154328 0.059359606 -0.004141304 0.0938493
000040 b8 d1 ee 3c fb e6 55 bd 43 56 d2 3c 39 56 1b 3e
       0.029152736 -0.052222233 0.025675898 0.1516961
000050 f5 bc 7a 3d 6f 6f 82 3d ff 0d 5e be 14 47 13 3d
       0.06121536 0.063689105 -0.21685027 0.035956457
000060 05 fd 10 3e f8 22 20 bf 8a 39 82 3e 68 05 12 bd
       0.1415902 -0.6255336 0.25434524 -0.035649687
000070 48 f1 9c bb df ff 98 bd 93 46 81 bc ea ed f3 3d
       -0.004789505 -0.074706785 -0.015780723 0.11910613
000080 b3 24 b5 be 2e 9b 61 bc 91 39 48 3d 21 0c 0a 3e
       -0.35379562 -0.013769908 0.048883025 0.1348119
000090 08 84 20 3c bc e4 87 3d 76 f4 4b 3d bc 66 fe 3c
       0.009797104 0.066354245 0.049793683 0.031054847
0000a0 e0 6c 4e bd 18 bf f3 bd c3 95 80 bb 47 3c 01 3d
       -0.0503968 -0.119016826 -0.003924103 0.031551626
0000b0 aa b3 1f bc ae e6 2a bd 35 70 1b 3e c0 be a3 3d
       -0.009747425 -0.0417239 0.15179522 0.07995367
0000c0 21 30 56 3e 68 e8 4d bc f4 d0 36 be 12 80 e9 3d
       0.20916797 -0.012567617 -0.17853147 0.114013806
0000d0 71 48 56 3d 2f 8d 11 3e 2c 2b b1 bc 0c a0 fb 3d
       0.05231518 0.14214014 -0.021627031 0.12286386
0000e0 51 51 35 be 4d 23 9c bd fa 1e fd 3d 5a 7c 88 bc
       -0.17706801 -0.076239206 0.12359424 -0.016660858
0000f0 50 42 ab be 03 1f 01 3e 43 75 2f bd ac 15 2f 3d
       -0.3344903 0.12609486 -0.04283644 0.042745277
000100 65 90 14 3e 92 08 55 3d 2f f4 bc bc 21 71 cd 3d
       0.14508207 0.052010126 -0.023065655 0.10031343
000110 ef 71 7c be 83 32 39 be 06 19 1b bc 5a 74 18 be
       -0.24652837 -0.18085675 -0.009466415 -0.14888135
000120 cd 67 3b be ed 9d f5 3d b4 a7 46 bd e5 0a 73 bd
       -0.18301316 0.119930126 -0.048499778 -0.05933656
000130 25 ec fb bd 24 30 67 3e e4 e6 ee be 51 cd 7e 3d
       -0.123009 0.22576958 -0.4666053 0.062207524
000140 93 0e 78 3e e8 89 9b 3e 8b 7d 95 be 44 98 a1 3a
       0.2422431 0.30378652 -0.29197344 0.0012328704
000150 fd d2 2b 3e 12 85 27 bd ab 63 29 be 12 7d 04 3e
       0.16779704 -0.04089839 -0.16541927 0.12938336
000160 fb d3 32 bd de 43 63 3b 9b c3 fb 3c 42 7b 20 3e
       -0.04365919 0.0034677903 0.03073292 0.15672019
000170 c8 ab 1f bd 32 03 22 be ff e3 d7 bd 01 58 7b bd
       -0.038982183 -0.15821531 -0.10541534 -0.061363224
000180 1e 43 89 3e 5f 10 bd 3c e4 a3 d1 ba f7 3d 80 bd
       0.2680902 0.023079095 -0.0015994278 -0.06261819
000190 3e b7 b1 3d de 62 49 be 60 7e 62 be 9e 42 2a 3e
       0.08677529 -0.19666621 -0.2211852 0.16626975
0001a0 07 d2 ab bd 8d dc 14 3e 23 17 be 3e 7a 42 15 be
       -0.08389669 0.14537258 0.37127027 -0.1457614
0001b0 fa a4 b9 3c ca 0b 14 bd 00 6e 17 be 66 87 e6 bd
       0.022661675 -0.036144055 -0.14788055 -0.11256294
0001c0 01 22 30 be 03 e7 21 3e 5c 3c 38 3e e2 fc 89 be
       -0.17200471 0.1581078 0.17991775 -0.26950747
0001d0 9c f1 0d 3e b0 b1 ad 3d e6 b4 27 be d8 c4 99 be
       0.13861698 0.08481157 -0.16377601 -0.30032992
0001e0 45 85 3b bd 5f d8 8e 3d 74 11 3d 3d 22 8e ac 3e
       -0.045781393 0.06974863 0.046159223 0.3370219
0001f0 03 08 22 be e5 9b bc bd b3 cb 04 be c9 5d a4 3d
       -0.15823369 -0.09209422 -0.1296833 0.080257006
000200 7f ee 7a 3e 3e e7 65 3d 97 20 24 3b 83 ab 27 3e
       0.24505042 0.056128733 0.002504384 0.1637402
000210 bb 08 fa bd 3c 5b 9f bd 82 b1 8b 3d f1 b3 ac 3d
       -0.122086965 -0.077810735 0.06820966 0.084327586
000220 68 85 c3 bd fb 34 3d bd 04 d7 07 bd e9 08 70 be
       -0.095469296 -0.046193104 -0.03316404 -0.23440899
000230 8b 0c 84 3e de 27 b0 bd f8 80 12 be 5c 26 86 bd
       0.2579082 -0.08601354 -0.1430701 -0.06550285
000240 a3 ef ca bd 4b a2 f3 3d ce 65 1b 3d a2 bb a9 bd
       -0.09908988 0.11896189 0.037938885 -0.08287741
000250 f3 a4 46 be d7 f1 73 bc cb 40 0d 3f 6a dc de 3a
       -0.1939886 -0.014889202 0.5517699 0.0017002944
000260 a0 b7 75 3d 45 8f b2 bc 0f 2e 21 3f af ac e7 bd
       0.05998957 -0.021796832 0.62960905 -0.11312234
000270 1a 90 9a 3d 39 41 a0 bd 8f 0d 59 be 80 31 8e 3e
       0.075470164 -0.0782494 -0.21196578 0.2777214
000280 58 29 29 be 4f 3c 3a 3e 01 3b dd bc 47 d9 c6 be
       -0.16519678 0.18187068 -0.027005674 -0.38837644
000290 8c b5 e8 be a3 08 0a bd 02 12 8a be e5 64 91 be
       -0.4545101 -0.033699643 -0.26966864 -0.2839729
0002a0 bd dd cd 3e c5 66 f7 bd d1 73 1b 3c 52 05 91 3e
       0.40208235 -0.120801486 0.009488062 0.28324372
0002b0 cb 96 2c bd cb c9 84 3d db fa 10 3e 2f 46 8b 3d
       -0.042135995 0.064838015 0.14158194 0.06800496
0002c0 ba 16 ad be e3 68 b5 3e bd e9 49 3e b8 8a 9e be
       -0.33806401 0.35431585 0.1971807 -0.3096521
0002d0 72 32 fd 3d 94 3a 09 be ee 28 11 bf 4d bd 8e bd
       0.12363137 -0.13401252 -0.5670308 -0.069697
0002e0 c9 70 58 be c3 f0 33 3c ea 34 10 3f 56 3c b4 3e
       -0.21136774 0.010982695 0.5633074 0.35202283
0002f0 52 68 ae bd d7 5d d6 bd 9a 46 2f 3e 8e 9a 13 be
       -0.08515991 -0.10467117 0.17116776 -0.14414427
000300 19 96 a6 be 4e 4c 8f 3d 77 b4 d3 be bb 8b bb bd
       -0.3253639 0.06996976 -0.4134862 -0.09157511
000310 58 29 e4 bb 17 93 77 3e 70 ba 32 3e 87 f0 1e bd
       -0.0069629364 0.24177204 0.17453933 -0.038803604
000320 f5 ee a8 3d b4 9b b9 3d dc ba 0e 3b 94 fe 4d 3e
       0.082487024 0.09062901 0.0021778857 0.20116645
000330 b4 fb 82 3c 5b b7 2d be 72 b2 18 3e 68 55 69 3d
       0.015989162 -0.16964476 0.14911821 0.056966215
000340 0a b9 45 3e 09 fe 05 be de 1e 61 3e e8 60 30 be
       0.19308868 -0.13085188 0.21984431 -0.17224467
000350 57 ed 7e bd 64 f5 3b 3e 44 ef 67 3c 95 17 ce bd
       -0.062238064 0.18355328 0.014156166 -0.10063092
000360 8c b1 81 be d7 b3 13 3d a5 87 c6 3b 05 3f 82 bd
       -0.2533077 0.03606018 0.0060586506 -0.06359676
000370 52 13 39 bc 60 e1 2c 3d 96 4e 61 3b 05 66 83 3d
       -0.01129611 0.04220712 0.0034379116 0.06415943
000380 f1 3c 13 be 18 b4 27 3d 94 c8 43 3e 54 90 85 3d
       -0.14378716 0.040943235 0.19119483 0.06521669
000390 c2 3d 91 be 07 2c d2 3d e0 f8 e4 bc 56 bb 63 3e
       -0.2836743 0.10262304 -0.027950704 0.22239432
0003a0 82 18 bc bd cd b8 da bb b5 d4 25 be b9 f6 74 bd
       -0.09184362 -0.006674862 -0.16194423 -0.059805606
0003b0 56 8e ad bc c0 a5 90 3d cf ae c0 3c df 74 99 bd
       -0.021186035 0.07062864 0.023520855 -0.074929945
0003c0 64 a7 cc 3d 64 0c b0 bd a5 67 9d be 9e 1c 8d 3c
       0.09992865 -0.08596113 -0.30743137 0.01722556
0003d0 3e 57 bb 3c 22 44 d3 3c 47 69 4c be 66 b5 11 bc
       0.022868749 0.025789324 -0.19962035 -0.008893346
0003e0 fe 6b 4d bd 5c 58 fb bd df 8e 2b 3d 07 79 eb 3d
       -0.050151818 -0.122727126 0.0418843 0.114976935
0003f0 cd ca bd bd 22 b7 d8 bc 36 d1 ae 3c f8 c3 17 be
       -0.09267197 -0.026454512 0.021339994 -0.1482085

encoder.bias_ih_l0_reverse f4 [50]
000000 0e 25 56 be 33 a3 85 b9 99 ef 35 3d 83 8f b5 3c
       -0.20912573 -0.0002548933 0.04441795 0.022163158
000010 36 28 58 3e d0 7b a7 bc fc 2c af bd 9c 10 5b be
       0.2110909 -0.02044478 -0.08553502 -0.21393055
000020 2e 37 24 bd 45 48 c6 ba 48 63 63 bb 3c 55 18 bd
       -0.040091686 -0.0015127739 -0.0034696627 -0.03719066
000030 97 44 f7 bc 49 29 90 bd 2d af 0a 3e 58 0d 0e 3e
       -0.030184073 -0.070391245 0.13543387 0.13872278
000040 2e e6 86 3c 55 86 9f 3e 36 74 3c bd 85 b7 eb bd
       0.01646718 0.31157175 -0.046009265 -0.11509613
000050 08 c7 2e bd 7a 68 1d bd 3f 6d 81 3d da de b4 3d
       -0.04267028 -0.038429715 0.06319665 0.08831568
000060 55 ae f3 3c 1e 5a 7b bd ef da 12 3e db 92 88 bb
       0.029746214 -0.06136524 0.14341329 -0.004167897
000070 98 41 f3 3c 66 ac 08 be d8 7d c7 3c 63 49 9c bd
       0.029694363 -0.13347015 0.024352 -0.07631185
000080 82 d5 a2 3d 48 53 bc bd 90 46 b8 3d f2 8d d8 3d
       0.0795088 -0.09195572 0.08997834 0.10573949
000090 db 27 f7 3d 03 81 bd bd de 2b e7 bc 6e c2 ef bd
       0.12068149 -0.09253123 -0.02821916 -0.117070064
0000a0 ee 84 3a bd d3 ca 96 bc 99 23 8d 3b 8a cc 73 be
       -0.045536928 -0.018407261 0.004307222 -0.23808494
0000b0 db 06 3c bc 04 92 00 3e 71 bf 51 bd 44 ea 25 bd
       -0.011476244 0.125557 -0.051207963 -0.040506616
0000c0 e6 cb 68 3c fa df 91 bd
       0.014208769 -0.07122798

encoder.bias_hh_l0_reverse f4 [50]
000000 2a 23 64 bd f5 cb e1 bc f5 21 0d bb 2b de 63 bd
       -0.055697598 -0.027563075 -0.0021535133 -0.055631798
000010 12 29 a4 3e f8 c5 67 bd 48 83 bd 3d c9 2e 04 be
       0.32062584 -0.056585282 0.092535555 -0.12908472
000020 f0 c0 f6 3c 7f 7f a4 bc 55 64 d2 3c 32 f2 92 3c
       0.030121297 -0.020080326 0.025682608 0.017937753
000030 47 3b eb 3d 6e a1 43 3b cd 1c fc bd e6 32 c3 3d
       0.11485916 0.0029850858 -0.12310181 0.095311925
000040 0f ab bd bc f7 a5 2b 3e 9e d8 67 3d 63 71 46 bd
       -0.023152856 0.1676253 0.056603067 -0.048447978
000050 a3 71 54 39 b0 ca 80 be ab af 5d bd fc 9b fe 3d
       0.00020260228 -0.25154638 -0.05412261 0.124320954
000060 25 1d 96 bd 27 5f 36 3d 3e 82 2a 3d a8 7b 04 bd
       -0.07329778 0.044524338 0.041628115 -0.03234449
000070 aa c2 ac bc 37 ce a0 3c f0 15 d1 bc 4f b2 fa 3d
       -0.021088917 0.01962958 -0.025523156 0.12241041
000080 64 fe 02 be 87 67 83 3d e0 fd df bd 01 b7 f0 bc
       -0.12792355 0.06416231 -0.10937095 -0.029384138
000090 16 7a d4 bc 40 05 44 bc 8d 41 86 3d 41 de f6 3c
       -0.025937121 -0.011964142 0.065554716 0.030135276
0000a0 81 2c 00 be 61 b9 24 3d 99 09 3e ba 76 d9 ec bb
       -0.12516977 0.040215854 -0.0007249355 -0.007228072
0000b0 34 5d 38 3e 9d 31 e2 3d 1f 30 d0 3c b7 41 b6 bd
       0.18004304 0.11044619 0.02541357 -0.08899253
0000c0 c5 28 64 3c 38 41 82 bb
       0.013925736 -0.00397506

decoder.weight_ih_l0 f4 [100, 100]
000000 b2 7a bc be ec 3b 35 3e 11 6a 6d 3c d2 99 40 be
       -0.3681236 0.1769864 0.01449062 -0.18808678
000010 66 94 ba bd 5d 38 53 be 16 c4 bb 3e 0b 3f b3 bd
       -0.09110336 -0.2062697 0.3667304 -0.08752259
000020 2c 6d 78 3c 4a 43 2f 3d 1d e2 37 be 3b eb ca bd
       0.015162747 0.04278878 -0.17957349 -0.09908148
000030 49 f8 27 b9 b0 6d e4 3d 92 85 fa bd 95 d6 d9 3d
       -0.00016018855 0.11153734 -0.12232508 0.106366314
000040 8a fb 76 3d 51 23 01 3d b6 6b 21 3e 2c e6 8e bd
       0.06029848 0.03152782 0.15763745 -0.069774956
000050 97 23 42 bc aa b0 2e be e7 7f 60 3d 0d ba 80 bd
       -0.011849306 -0.1705958 0.054809477 -0.06285486
000060 2c 97 5a 3d cc 53 13 bd fc d4 83 be 25 cb 30 3e
       0.053366825 -0.035968587 -0.25748432 0.17264993
000070 20 24 08 be a1 79 33 3d 18 6e bc be 2d 23 35 3e
       -0.1329503 0.043817166 -0.36802745 0.176892
000080 75 89 7f 3d fb 1e c3 bd b4 04 34 3e 5e 94 85 be
       0.06238695 -0.095273934 0.17579919 -0.26089758
000090 a9 71 a5 3d 88 54 a6 bd e5 01 57 3d 93 85 f0 3c
       0.080783196 -0.08121592 0.05249204 0.029360568
0000a0 6e e0 90 be 6c 64 c9 bd e3 76 a8 bc d1 1b 64 3d
       -0.28296226 -0.09833607 -0.020564502 0.05569059
0000b0 7b 9e 02 bd 31 8d dc bd ce 33 04 be de d5 d0 bc
       -0.03188942 -0.107691176 -0.12910387 -0.025492605
0000c0 46 c3 99 3c ee ba 85 3e 24 83 a9 3d 32 7d fe bd
       0.018769871 0.2611918 0.08276966 -0.12426223
0000d0 ef b1 d4 bc 49 0f 07 bc a6 0f 1c 3d d8 40 76 3d
       -0.025963752 -0.00824339 0.03810086 0.060120434
0000e0 18 ba fd 3d 41 ef c2 bc c5 18 80 3d 15 05 00 be
       0.1238901 -0.023795726 0.062547244 -0.12501939
0000f0 ac be d6 3d ba e5 41 bc 7b 6d 0b be 99 f2 66 bd
       0.104855865 -0.011834556 -0.13615982 -0.056383703
000100 e0 5b b5 bc 99 d4 a5 3d 0f ec 2f bd 32 68 3f 3e
       -0.022138536 0.080971904 -0.042949732 0.18692091
000110 3b 59 83 3d a1 b8 e0 bc c0 63 42 3d 93 45 01 be
       0.06413504 -0.027431788 0.04745841 -0.12624197
000120 15 a0 17 3d e8 19 37 be 86 8f 9a 3d f1 f4 33 3c
       0.0370179 -0.17880976 0.07546906 0.010983692
000130 bf 85 2d be d3 00 a1 bd df 9a 46 3d 2f 9f 70 3e
       -0.16945551 -0.07861485 0.04848754 0.23498224
000140 bd 48 6c bd cf 79 1e 3e 93 eb 87 bd c1 49 b5 bd
       -0.057686556 0.15476154 -0.06636729 -0.08851958
000150 aa 81 89 bd 18 cb 24 be 96 0d a5 bd 51 58 1e be
       -0.067141846 -0.16093099 -0.08059232 -0.15463378
000160 75 9a 9c 3d 0f 2f 86 3d 1a 41 6c bd 38 82 30 bd
       0.07646648 0.065519445 -0.057679273 -0.043092936
000170 ab 55 e0 bb 64 ed 89 bb a3 7a 2d be d6 64 e7 bc
       -0.00684615 -0.0042092074 -0.16941313 -0.028246325
000180 9d 8f 95 3c 91 b2 22 bd 38 29 13 3e b7 0e 09 3d
       0.018256957 -0.039721075 0.14371192 0.0334613
000190 46 3b 74 3e 9c cd 13 3d 24 53 10 3e c8 e0 2d 3e
       0.23850736 0.036084756 0.14094216 0.16980278
0001a0 6b cf ff 3d 9f fc cc 3d b9 e0 f9 bd 69 6e ed bd
       0.12490734 0.10009121 -0.122010656 -0.11593325
0001b0 5e f8 f6 3c d1 93 a3 bd e6 2f 6e bd f0 bf 35 3c
       0.030147728 -0.07987178 -0.05815115 0.011093125
0001c0 0e fe 62 bd c0 d5 ae 3e 38 b4 96 bd ab fa 3b 3d
       -0.055418067 0.34147453 -0.07358593 0.045893352
0001d0 65 a8 eb bd 69 47 be bc 9f b3 2f bd 2d ef c6 3e
       -0.11506728 -0.02322741 -0.04289591 0.38854352
0001e0 5a 64 9d be dc 9d fe 3d a4 a7 b5 3d aa 98 61 bc
       -0.30740625 0.12432453 0.088698655 -0.013769308
0001f0 1d b6 8d bd 67 d6 5b 3e 96 87 ad bd 48 4e 74 3e
       -0.06919501 0.21468507 -0.084731266 0.23857987
000200 f2 23 27 be 61 de 20 3b d3 79 f5 3d 15 c7 65 3d
       -0.16322306 0.002454661 0.11986127 0.056098063
000210 68 1b 99 3e a9 cd d9 3d 93 8a 32 3e 1a be b7 3d
       0.29903722 0.1063493 0.17435674 0.08971806
000220 d3 97 b4 bd f1 f7 97 bd d1 d8 1b bc cf 90 05 3e
       -0.08818021 -0.07420338 -0.009512142 0.13043521
000230 43 4f d6 3c fd 04 ea 3d 51 c2 a8 3c d0 a8 a2 bc
       0.026160842 0.11426733 0.02060047 -0.019855887
000240 79 f3 90 3d 3b 3d 9a 3d 98 aa 2e 3e 8e b2 e7 3d
       0.07077689 0.0753121 0.17057264 0.113133535
000250 6a 37 1e be ed 43 b9 bd 0e ef d8 3d f4 e4 a7 3d
       -0.15450826 -0.09046159 0.10592471 0.08197966
000260 b5 df 9c 3d ab 8b 1f 3e 45 91 10 bd 20 0c 17 3d
       0.07659856 0.15580623 -0.03529479 0.036876798
000270 8b 1b 57 bd 37 3a 03 be 97 aa f2 3c aa 05 0e 3d
       -0.0525165 -0.12815176 0.02962236 0.03467337
000280 7e c6 f3 3d 02 57 4e bd 11 7e 1c bd 66 24 20 be
       0.11903094 -0.050375946 -0.038206164 -0.15638885
000290 40 eb 35 bd f6 d6 36 3e 73 c3 d4 3d 43 ae d2 3c
       -0.044413805 0.17855439 0.103888415 0.02571786
0002a0 1d e3 07 be 24 a2 fd 3d 1a fc 17 bc e7 b2 42 3e
       -0.1327023 0.123844415 -0.009276414 0.19013558
0002b0 0e cc ed 3d e0 98 93 3b ec af d7 bd 51 26 fc 3b
       0.11611186 0.004504308 -0.10531601 0.0076949974
0002c0 e0 12 3e bd 21 cf 28 be 0b f2 3c be 4a f8 9d 3e
       -0.04640472 -0.16485263 -0.18451707 0.30853492
0002d0 d5 14 65 be 0f ab a8 bd cc a8 74 bd 99 6f a5 bd
       -0.22371228 -0.08235752 -0.05973129 -0.08077926
0002e0 d2 4e d4 3c fb 09 26 be 65 7a b8 bd 90 c6 6b bd
       0.02591649 -0.16214745 -0.0900772 -0.05756241
0002f0 e0 d7 85 bd bf 92 3a bd b1 47 fb bc a3 ae 89 3d
       -0.065353155 -0.045550104 -0.030673834 0.067227624
000300 d6 9e 23 3d 8f b9 ba bd 47 e6 98 3c cd b1 6b 3d
       0.0399464 -0.09117424 0.018664492 0.05754261
000310 25 d5 3e 3e 36 b9 a8 bd 2f b3 0b be 5c e4 54 3d
       0.18635996 -0.08238451 -0.13642572 0.051975593
000320 39 43 04 bc 38 61 a4 3d 75 c8 31 3e 2e 55 14 3e
       -0.008072668 0.080263555 0.17361625 0.14485618
000330 6d 40 f9 bb df 76 ac 3d 9c d9 62 bb f9 f4 a4 3d
       -0.007606557 0.0842111 -0.0034614569 0.08054537
000340 7f e8 04 3e 2e 1f 61 3e a5 d3 fc 3d e0 0b 21 be
       0.12979315 0.2198455 0.123450555 -0.15727186
000350 a9 08 2a 3b d4 82 98 3e 08 20 a8 3d 16 c8 b1 3d
       0.0025945103 0.29787314 0.082092345 0.086807415
000360 b1 e4 1b be e1 b8 01 be 97 17 17 3e d3 7b 3a 3e
       -0.15223958 -0.12668182 0.14755093 0.18211298
000370 38 7d 58 3d 79 d7 e6 bd 3b 9b 56 be 35 f2 80 bd
       0.052853793 -0.11271567 -0.20957653 -0.06296197
000380 85 5e 9b be 67 b0 a9 bd 6a 4c 72 be bf bd bc bd
       -0.3034555 -0.08285599 -0.23661962 -0.09215879
000390 66 a8 06 3d 17 77 82 bb 11 74 0f 3b a0 bf bf bd
       0.03287544 -0.003981482 0.002188925 -0.093627214
0003a0 56 85 68 3e cb e4 81 3d 72 62 4b 3e 4a 3e d0 bc
       0.22707114 0.06342467 0.19861773 -0.025420327
0003b0 23 af 67 bc 1b 22 d8 bd 3c e3 7b bc 5f 9f 5e 3c
       -0.014140877 -0.1055338 -0.015374001 0.013587802
0003c0 3c 5f a7 3c 66 94 cf bd 82 6e 8c be 0b 85 1d 3e
       0.020431153 -0.10135727 -0.2742806 0.15382783
0003d0 18 70 b9 3d a2 d5 f5 3c ab 24 0a 3e ed ab 1d 3e
       0.09054583 0.030009095 0.1349055 0.15397616
0003e0 a0 74 16 be 01 7e e4 3d b8 1a 47 3e d4 ae 9f bc
       -0.14692926 0.11156846 0.19443786 -0.019492544
0003f0 5a 57 4d be de 80 46 3e f4 12 80 3d 06 4b 0d be
       -0.20052853 0.19385096 0.06253615 -0.1379815
